snake-ai-pytorch-main/model/model.pth (torch, 17609 bytes, 4 tensors)

linear1.weight f4 [256, 11]
-0.28872272 0.062204394 0.13771038 0.17048143 0.11727442 -0.23269057 -0.12045259 -0.30152038
0.061484694 -0.06373086 0.02976252 0.07205055 -0.055747554 0.087424584 0.17530741 -0.04544145
-0.29858878 -0.18571864 -0.30936444 -0.3240517 -0.045527883 -0.093471065 -0.063894294 -0.22826613
-0.14983752 -0.10428354 -0.16656616 0.29819462 0.13096122 0.121414624 0.2684898 0.17968254
0.19073327 0.11065267 0.03849383 0.22677134 0.027161945 -0.14957021 0.020339573 -0.23651025
0.184441 0.18271586 0.29297197 -0.18759744 -0.22271015 -0.15710701 0.045204394 -0.25130633
-0.29922864 0.029515548 0.14562368 0.17000766 -0.22321805 -0.017276444 -0.16403547 -0.22862722
-0.176085 -0.21969347 -0.08103727 -0.19361483 -0.035189953 -0.17925905 -0.16784172 0.10819171
0.06702228 -0.17578757 0.35277835 -0.24835105 0.26911095 -0.17407507 0.05518974 -0.074928045
-0.14591624 -0.26656118 -0.1609572 -0.13474864 0.07827431 -0.09083699 -0.041246735 -0.19410388
-0.03934701 0.0542435 -0.29499784 -0.049046893 -0.22596776 -0.2925909 0.19871889 0.0691512
-0.0092454795 -0.06962201 -0.1851115 -0.13982302 0.014725187 -0.18306659 0.17134523 0.025607964
-0.108851224 -0.0029042386 -0.1261922 -0.028152457 0.06094954 -0.14712924 0.26197433 0.0032142103
0.2895019 -0.24258234 -0.34506828 -0.056603394 -0.28691062 -0.017498618 0.17247899 0.1698741
0.22654226 0.2348702 -0.3526116 0.0420724 0.19244532 0.26407054 -0.0015077216 -0.33020496
-0.015340094 -0.27446657 0.25222096 0.20975107 0.21139805 -0.2960348 0.18363614 0.29068246
0.18722135 0.112203225 0.08384599 0.20327407 0.014427199 0.23017618 0.06421991 0.23664363
-0.14214581 0.03657148 0.19478129 -0.10950057 -0.07865299 0.16006175 0.21293238 0.14707972
-0.11351197 -0.122302085 0.19265036 -0.004756574 0.005864478 0.011118601 0.06564153 -0.08076658
0.1955146 0.011133592 0.10695748 0.12423685 0.32068503 0.09616687 -0.16659352 0.011752616
-0.20383205 0.33539593 0.1422479 0.28063425 0.36083382 0.1754413 0.28715116 -0.17613682
-0.0553575 -0.13697019 -0.13553725 0.03078428 -0.17987332 -0.11049396 -0.21464604 -0.1489973
0.35137936 0.07902396 -0.3165358 0.21568222 -0.19897577 0.26701513 0.03575728 0.24784064
0.1661917 0.1100651 0.19068535 -0.05611137 0.04306745 -0.4037389 -0.11248616 -0.07542173
0.034719035 0.0025279315 0.24364886 0.18252683 0.16234215 0.21340454 0.15482374 -0.16154578
0.07169998 -0.2763495 0.1475896 -0.2421736 -0.12369807 0.035931412 0.17562678 -0.1182222
-0.28601104 -0.27279928 0.2625765 -0.23155752 -0.010372373 -0.11820194 0.070569195 0.06467276
0.21758223 0.007648137 0.16496024 0.011586595 0.19610058 -0.18950804 0.015479217 0.23224667
0.10062612 0.12686938 -0.08440347 0.19661464 -0.09489982 -0.28957754 -0.24736516 -0.0036803358
0.26375502 -0.049658746 -0.07611504 0.124998495 0.19257566 -0.05513083 -0.03307926 -0.092013665
-0.0731796 -0.10043915 0.25954357 0.0097962115 0.020048773 0.045420166 -0.0106130745 0.24473861
-0.2034932 -0.18944788 -0.12947087 0.29012054 0.31938356 0.06330642 -0.25852352 0.23974487
00000000: 77d3 93be 09ca 7e3d f303 0d3e af92 2e3e
00000010: 922d f03d 7046 6ebe d9af f6bd e160 9abe
00000020: 60d7 7b3d 5385 82bd 87d0 f33c 3d8f 933d
00000030: 8c57 64bd a90b b33d c983 333e d020 3abd
00000040: a1e0 98be 072d 3ebe 0465 9ebe 1bea a5be
00000050: 727b 3abd c26d bfbd 03db 82bd 99be 69be
00000060: 026f 19be 9c92 d5bd 5290 2abe f7ac 983e
00000070: b31a 063e 3ba8 f83d 7f77 893e b3fe 373e
00000080: 954f 433e de9d e23d b5ab 1d3d bf36 683e
00000090: ba82 de3c ef28 19be 2d9f a63c be2f 72be
000000a0: 1ade 3c3e de19 3b3e 6c00 963e 8b19 40be
000000b0: 210e 64be a9e0 20be 3e28 393d 39ab 80be
000000c0: 7f34 99be 97ca f13c 601e 153e 7d16 2e3e
000000d0: 4693 64be 5487 8dbc eaf8 27be 411d 6abe
000000e0: a04f 34be 53f7 60be def6 a5bd f742 46be
000000f0: 5723 10bd af8f 37be b3de 2bbe 9e93 dd3d
00000100: fa42 893d a801 34be 5d9f b43e bd4f 7ebe
00000110: e9c8 893e bc40 32be a30e 623d e073 99bd
00000120: 116b 15be b57a 88be f7d1 24be 8cfb 09be
00000130: 484e a03d be08 babd 56f2 28bd 2bc3 46be
00000140: 552a 21bd 6f2e 5e3d f509 97be 65e5 48bd
00000150: 1864 67be 79ce 95be f77c 4b3e 259f 8d3d
00000160: 5a7a 17bc fc95 8ebd de8d 3dbe c42d 0fbe
00000170: e941 713c cf75 3bbe 2075 2f3e cbc7 d13c
00000180: 64ed debd 0a55 3ebb 8738 01be fb9f e6bc
00000190: 3aa6 793d 0ca9 16be 8021 863e 80a5 523b
000001a0: 9839 943e 8167 78be caac b0be f6d8 67bd
000001b0: f3e5 92be 4359 8fbc 559e 303e 7af3 2d3e
000001c0: b2fa 673e d081 703e 8289 b4be 1c54 2c3d
000001d0: 6310 453e 4134 873e be9e c5ba a010 a9be
000001e0: 0555 7bbc e286 8cbe 1b23 813e fcc8 563e
000001f0: bb78 583e e091 97be 1d0b 3c3e 55d4 943e
00000200: f4b6 3f3e ceca e53d 72b7 ab3d 1427 503e
00000210: 0f60 6c3c 4eb3 6b3e ba85 833d b552 723e
00000220: ac8e 11be facb 153d bf74 473e d641 e0bd
00000230: d214 a1bd 3ae7 233e f20a 5a3e 119c 163e
00000240: f778 e8bd 8479 fabd 2346 453e 09dd 9bbb
00000250: cf2a c03b cb2a 363c 116f 863d f368 a5bd
00000260: fb34 483e ab69 363c 860c db3d e46f fe3d
00000270: d430 a43e 23f3 c43d 7e97 2abe 0b8e 403c
00000280: 59b9 50be 04b9 ab3e 6fa9 113e 4baf 8f3e
00000290: 36bf b83e e2a6 333e 7a05 933e 365d 34be
000002a0: 8cbe 62bd ea41 0cbe 47ca 0abe 502f fc3c
000002b0: b630 38be a84a e2bd 2ccc 5bbe c092 18be
000002c0: ffe7 b33e 50d7 a13d fb10 a2be cddb 5c3e
000002d0: 4ec0 4bbe 35b6 883e 3a76 123d f0c9 7d3e
000002e0: 282e 2a3e d069 e13d 0543 433e 09d5 65bd
000002f0: 7f67 303d ddb6 cebe 255f e6bd b576 9abd
00000300: 8c35 0e3d a7ab 253b 167f 793e 50e8 3a3e
00000310: 053d 263e b886 5a3e 1d8a 1e3e 426c 25be
00000320: 70d7 923d af7d 8dbe ba21 173e 5bfc 77be
00000330: 6a55 fdbd d12c 133d 82d7 333e 7b1e f2bd
00000340: 0a70 92be 59ac 8bbe 6d70 863e 6a1d 6dbe
00000350: e3f0 29bc dc13 f2bd 9586 903d 2773 843d
00000360: e0cd 5e3e 399d fa3b 56eb 283e b4d5 3d3c
00000370: 97ce 483e 650e 42be 8b9c 7d3c 12d2 6d3e
00000380: 1115 ce3d 0cea 013e badb acbd 5955 493e
00000390: d65a c2bd 8243 94be 4b4d 7dbe ca31 71bb
000003a0: e60a 873e f866 4bbd 34e2 9bbd 36ff ff3d
000003b0: 8e32 453e ddd0 61bd 1e7e 07bd a971 bcbd
000003c0: 30df 95bd 0bb3 cdbd e5e2 843e 4a80 203c
000003d0: 533d a43c 7f0a 3a3d 76e2 2dbc c29c 7a3e
000003e0: 8560 50be a0fe 41be 0394 04be ae8a 943e
000003f0: 3e86 a33e cca6 813d 325d 84be ae7f 753e

linear1.bias f4 [256]
-0.23253626 0.059525732 -0.08001432 0.32329738 0.09844637 0.13456272 0.058809143 -0.037231687
-0.11446896 -0.0736687 0.05738146 -0.2672979 0.24607205 -0.26214728 0.4078866 -0.12598264
0.23566517 0.0022291895 -0.25449243 -0.039432447 -0.3079165 0.18511565 0.16678889 -0.049252786
0.116038755 -0.0625996 -0.13891679 -0.17078313 -0.21701288 0.14158122 0.10316116 0.1704791
0.07802676 -0.09883917 0.03645785 0.019073872 0.054486968 0.11055811 -0.23437206 0.1928539
-0.08193532 0.28659928 -0.07509818 0.26973593 -0.24662375 -0.010450134 0.11769997 -0.3319391
-0.007890252 -0.026518011 0.27333423 0.022760991 -0.09690456 0.1873459 0.05613551 -0.24556819
-0.26287147 -0.06292729 0.06616405 -0.2646629 -0.026313089 0.18887182 0.24840893 -0.056227352
0.26449528 -0.09674389 0.011750472 -0.112271465 -0.0971251 0.31774423 -0.027531905 -0.25624073
0.033476565 -0.26981634 -0.20375137 -0.15285948 0.20784394 -0.25205493 0.06740748 0.047983777
0.3084267 0.20723292 -0.22207046 0.26898342 -0.34888616 0.029370682 0.17798568 -0.21217932
0.09583308 -0.044467025 0.19978166 -0.08346479 0.2046758 0.091193065 0.08409922 0.093919545
0.2712039 -0.21433406 0.17136441 -0.24448314 0.18479203 -0.16291788 0.0042811097 0.004438933
-0.014688839 -0.11403563 0.30014256 -0.14188474 0.21199514 -0.11094531 -0.19412906 0.10927448
-0.24718714 0.020221528 -0.08993262 0.0877285 0.24660504 0.23022889 0.04905589 -0.123507254
0.15153202 0.07031872 -0.09279055 -0.22970988 -0.029221704 -0.29102868 0.21372858 -0.023514083
0.25688982 -0.05030762 0.24508025 0.055419277 0.0042095142 0.106832586 0.2525579 0.07870202
-0.05059841 -0.11642863 -0.05882186 -0.012921954 -0.20683709 0.090235814 0.12509365 -0.28672075
-0.1907582 -0.18231492 0.232428 -0.007335433 0.05704204 0.021623187 -0.25761306 0.06587674
-0.023320246 -0.13324025 0.045358744 -0.031490754 0.12299374 -0.009384444 -0.20077306 -0.06279013
-0.30065948 0.2458285 -0.069263995 0.1877103 0.04210906 -0.18983735 -0.18315737 -0.04301342
-0.2834867 0.20103866 0.06291951 -0.0058197672 0.015332352 0.3621096 -0.25298148 -0.066513345
0.1600852 0.14398569 -0.031556163 0.2881128 0.23077828 -0.057174776 0.009201723 0.23704948
-0.07668649 0.12973273 0.21612962 0.081858404 0.28134358 0.1400644 0.3014686 0.20598294
-0.054134876 -0.14109929 -0.04755713 -0.34360823 -0.09210301 -0.09884311 0.12441542 -0.09051053
0.28986427 -0.1943715 -0.24569374 -0.12930617 0.15854542 -0.06291908 0.24869172 -0.013566619
-0.32761648 0.1872699 -0.16380674 0.011271373 0.09913761 0.073903576 0.17824443 0.25419194
0.09761305 -0.21514212 0.06726236 0.31466734 -0.15966754 0.13785651 0.14230376 0.1887126
-0.29482904 0.26147202 -0.29662317 -0.22157982 0.10392671 0.25859264 0.048500977 0.32988575
-0.21358147 -0.21796325 0.03217226 -0.032708958 -0.21765728 -0.16045734 0.070534095 0.077226944
-0.19077834 0.12893997 -0.019393444 -0.21686643 0.31979203 0.0079799555 0.0044432767 0.022333885
-0.33270934 0.02835758 -0.07377647 0.3063733 -0.040282905 -0.114548914 -0.098801434 0.10325647
00000000: fc1d 6ebe 41d1 733d 8cde a3bd 3c87 a53e
00000010: 409e c93d cfca 093e dbe1 703d 4180 18bd
00000020: b46e eabd 9edf 96bd d208 6b3d 45db 88be
00000030: 50fa 7b3e 2b38 86be 83d6 d03e 9801 01be
00000040: 3652 713e 9817 123b d54c 82be eb83 21bd
00000050: 3ba7 9dbe f58e 3d3e b5ca 2a3e 4abd 49bd
00000060: baa5 ed3d 3834 80bd 3440 0ebe c6e1 2ebe
00000070: a038 5ebe abfa 103e 2946 d33d 1392 2e3e
00000080: 7ecc 9f3d 316c cabd d454 153d cf40 9c3c
00000090: ba2d 5f3d 4a6c e23d 3bff 6fbe 7e7b 453e
000000a0: b4cd a7bd 24bd 923e 13cd 99bd d41a 8a3e
000000b0: f08a 7cbe 0a37 2bbc af0c f13d ecf3 a9be
000000c0: 1e46 01bc 4d3c d9bc 77f2 8b3e 4275 ba3c
000000d0: e675 c6bd 9bd7 3f3e 59ee 653d 3a76 7bbe
000000e0: 1797 86be 06e0 80bd 0481 873d e581 87be
000000f0: 8c8e d7bc 9d67 413e e95e 7e3e a74e 66bd
00000100: ed6b 873e a921 c6bd 0d85 403c 95ee e5bd
00000110: 86e9 c6bd 5faf a23e 978a e1bc fc31 83be
00000120: b91e 093d 5e25 8abe 33a4 50be 3287 1cbe
00000130: 0bd5 543e 580d 81be ef0c 8a3d a38a 443d
00000140: 1bea 9d3e de34 543e 7066 63be 32b8 893e
00000150: 35a1 b2be c99a f03c e141 363e 8945 59be
00000160: 2244 c43d 0e23 36bd 9093 4c3e 96ef aabd
00000170: 8896 513e 6ec3 ba3d 363c ac3d e458 c03d
00000180: 3ddb 8a3e 637a 5bbe 277a 2f3e ca59 7abe
00000190: 1f3a 3d3e f2d3 26be 8d48 8c3b 7874 913b
000001a0: 75a9 70bc 838b e9bd 49ac 993e 3c4a 11be
000001b0: 4115 593e 4b37 e3bd c5c9 46be 4ccb df3d
000001c0: a01e 7dbe 9ea7 a53c 982e b8bd 00ab b33d
000001d0: 0886 7c3e 1fc1 6b3e d4ee 483d 5ff1 fcbd
000001e0: 362b 1b3e 4303 903d f908 bebd 1139 6bbe
000001f0: 5b62 efbc b601 95be aadb 5a3e 9ba0 c0bc
00000200: 1087 833e 5d0f 4ebd 51f6 7a3e 53ff 623d
00000210: f7ef 893b 0bcb da3d 454f 813e 862e a13d
00000220: 4740 4fbd 2272 eebd 31ef 70bd 9ab6 53bc
00000230: 1acd 53be 8ecd b83d 8d18 003e 10cd 92be
00000240: 1e56 43be c3b0 3abe 9b01 6e3e 125e f0bb
00000250: eaa4 693d 1c23 b13c dce5 83be 62ea 863d
00000260: 1a0a bfbc 2270 08be 17ca 393d 73fc 00bd
00000270: 24e4 fb3d 36c1 19bc 7497 4dbe 1d98 80bd
00000280: 0af0 99be 77ba 7b3e 48da 8dbd 2137 403e
00000290: 8d7a 2c3d b964 42be 9b8d 3bbe d72e 30bd
000002a0: 2b25 91be 14dd 4d3e f2db 803d bfb3 bebb
000002b0: 8c34 7b3c 6e66 b93e ca86 81be 2638 88bd
000002c0: 60ed 233e fc70 133e 0941 01bd 8583 933e
000002d0: 2451 6c3e 1930 6abd d3c2 163c 19bd 723e
000002e0: ce0d 9dbd a8d8 043e 1551 5d3e 61a5 a73d
000002f0: 440c 903e 0b6d 0f3e 185a 9a3e 31ed 523e
00000300: 88bc 5dbd 557c 10be 44cb 42bd 6bed afbe
00000310: 81a0 bcbd 426e cabd 83cd fe3d 965d b9bd
00000320: 1769 943e 5309 47be 2497 7bbe d668 04be
00000330: bb59 223e b8db 80bd 0ba9 7e3e 8646 5ebc
00000340: 59bd a7be aec3 3f3e f4bc 27be 91ab 383c
00000350: a908 cb3d c25a 973d b585 363e 7225 823e
00000360: 5ae9 c73d 374e 5cbe d9c0 893d 141c a13e
00000370: e37f 23be 422a 0d3e 14b8 113e e03d 413e
00000380: d5f3 96be a9df 853e fede 97be d2e5 62be
00000390: 87d7 d43d 4166 843e f6a8 463d c9e6 a83e
000003a0: 1ab5 5abe c231 5fbe 0fc7 033d d4f9 05bd
000003b0: 8de1 5ebe ee4e 24be 2e74 903d 2929 9e3d
000003c0: 665b 43be d708 043e 00df 9ebc 3c12 5ebe
000003d0: c8bb a33e 5cbe 023c e898 913b 8df5 b63c
000003e0: e158 aabe 284e e83c 1e18 97bd f6dc 9c3e
000003f0: b0ff 24bd 9f98 eabd 6858 cabd 2178 d33d

linear2.weight f4 [3, 256]
-0.0025950647 -0.13442682 -0.05314447 -0.0595368 0.024114735 0.04515819 -0.053122938 -0.015986105
-0.03555909 -0.11131382 0.024855422 0.10782519 -0.07764355 -0.024420407 -0.08689472 0.04407782
-0.089370444 -0.07705975 0.02204627 0.00018659823 0.02851279 -0.031605527 -0.06833244 -0.050389446
0.0030751727 0.00871678 -0.028038453 0.018870855 0.04233377 0.0022428762 -0.0545768 -0.056140825
-0.010384007 0.09762845 0.0072097154 -0.10459772 -0.027889786 -0.030620387 -0.03029751 0.011296712
-0.01856105 -0.07823612 0.03993228 -0.009791511 0.035427146 -0.08569464 -0.06474785 -0.014307172
0.10222437 0.041693084 -0.121299155 -0.1050965 -0.06847816 -0.009833823 -0.10058411 -0.009681836
0.0035413152 0.003035002 -0.026555656 -0.056064796 -0.01950146 -0.03257717 -0.0851337 0.028972024
-0.0684209 -0.024436902 0.034393586 -0.01487315 -0.010835591 0.013615077 0.0018793562 -0.018835431
-0.043575488 -0.012718605 -0.032226983 -0.04787109 0.058327083 0.052788626 -0.022473328 0.029682044
-0.08730319 -0.1169905 0.016443359 -0.07622277 -0.0038434023 -0.030815512 -0.019712256 0.019784497
-0.01259857 0.019178804 -0.04902569 -0.016068375 -0.0016302147 -0.005885535 0.021549206 -0.07068314
-0.062112436 -0.032884832 -0.008351489 0.06878413 0.009820558 -0.059497595 0.013443078 -0.11379584
-0.02951804 -0.0063161813 -0.045332294 -0.058668308 -0.07143165 0.022329446 -0.029030677 -0.059400223
-0.046041135 0.026360609 -0.117735 -0.023657642 -0.046702903 -0.08813856 -0.08268448 0.040114887
-0.06995523 -0.08912297 -0.034889147 0.013070636 0.02374665 -0.072558045 -0.09353655 -0.030098455
-0.035640955 -0.06724708 -0.05243784 -0.07307278 0.031833466 0.035604063 -0.08519376 0.013109425
-0.004325696 -0.079154305 -0.01410008 -0.07926252 0.030863104 -0.123898834 -0.11178519 0.04724917
-0.03490783 -0.07440598 -0.07672112 -0.007982969 -0.068998344 -0.007758661 -0.022685904 -0.028921718
-0.013637146 -0.14131096 -0.03494622 -0.02163093 -0.03273554 -0.11438838 0.03781892 -0.031057492
-0.028767096 -0.04245776 0.032395817 0.043626603 -0.048728075 -0.103738606 -0.0035544152 -0.003362996
-0.0018524462 -0.093735695 -0.12388446 -0.11192895 0.017469265 -0.109386414 0.034453582 -0.057470605
-0.08950228 -0.0063041598 -0.054086804 -0.0672523 -0.04927486 -0.04057663 -0.11503277 -0.00033009716
0.023694828 -0.08888456 -0.034735963 -0.0011511558 0.013501984 -0.09291463 -0.11295827 -0.002103567
-0.06034144 -0.020063011 0.026114801 0.03865629 0.14186443 -0.08025481 -0.061459377 -0.003999687
-0.008828955 -0.008778926 0.08261798 -0.17493127 -0.017720427 -0.03763946 -0.0056621027 -0.03397747
0.07211763 -0.1223507 0.016840221 0.06410177 -0.01816164 -0.0044289296 -0.012608154 0.012639914
-0.011534346 0.013187141 -0.08895306 0.021561539 -0.0394901 -0.051720034 -0.046321776 -0.09519639
0.034286976 -0.04350491 -0.08214618 0.001229969 -0.0014806178 -0.03433245 -0.011838544 -0.082740024
-0.05651954 0.03432734 0.017415041 -0.004475411 0.07225324 -0.020506961 -0.12099248 -0.05811734
-0.07396066 -0.075159356 0.016062254 -0.027814329 -0.09292569 -0.0070093405 -0.10322878 -0.14176036
-0.07221187 -0.015766742 -0.02040994 -0.053206686 0.015985407 0.022273937 -0.06177245 -0.030969257
00000000: f611 2abb 2fa7 09be 04ae 59bd dcdc 73bd
00000010: 448c c53c cbf7 383d 7097 59bd 4bf5 82bc
00000020: 69a6 11bd 80f8 e3bd 999d cb3c 74d3 dc3d
00000030: 9503 9fbd 4e0d c8bc dcf5 b1bd f28a 343d
00000040: da07 b7bd 81d1 9dbd 619a b43c 95a9 4339
00000050: a893 e93c cc74 01bd e1f1 8bbd 2a65 4ebd
00000060: d688 493b d3d0 0e3c e6b0 e5bc 0d97 9a3c
00000070: 2d66 2d3d 38fd 123b ec8b 5fbd ecf3 65bd
00000080: af21 2abc 6df1 c73d 7a3f ec3b 5437 d6bd
00000090: 1f79 e4bc 9bd7 fabc 7c32 f8bc d815 393c
000000a0: 580d 98bc 423a a0bd 0890 233d 936c 20bc
000000b0: 0e1c 113d ac80 afbd 859a 84bd a168 6abc
000000c0: 035b d13d 5ec6 2a3d b16b f8bd d53c d7bd
000000d0: 473e 8cbd 0b1e 21bc 0bff cdbd 90a0 1ebc
000000e0: 6915 683b e2e6 463b 3f8b d9bc 33a4 65bd
000000f0: 87c1 9fbc a36f 05bd 945a aebd bd56 ed3c
00000100: 4220 8cbd e62f c8bc 4ae0 0c3d 83ae 73bc
00000110: c387 31bc c611 5f3c bb54 f63a c34c 9abc
00000120: 367c 32bd b261 50bc 7100 04bd 7a14 44bd
00000130: 61e8 6e3d e338 583d fc19 b8bc c227 f33c
00000140: 04cc b2bd b798 efbd 39b4 863c af1a 9cbd
00000150: 97e1 7bbb d070 fcbc 997b a1bc 1913 a23c
00000160: 3c6a 4ebc de1c 9d3c 29cf 48bd d3a1 83bc
00000170: eeac d5ba 72db c0bb f687 b03c 52c2 90bd
00000180: 9c69 7ebd 3fb2 06bd afd4 08bc b2de 8c3d
00000190: 68e6 203c c0b3 73bd 5b40 5c3c cb0d e9bd
000001a0: d1cf f1bc f8f7 cebb 5bae 39bd 2e4e 70bd
000001b0: c24a 92bd 3eec b63c bed1 edbc a64d 73bd
000001c0: a195 3cbd 34f2 d73c 0c1f f1bd accd c1bc
000001d0: 8b4b 3fbd fd81 b4bd 7b56 a9bd 824f 243d
000001e0: b044 8fbd 1b86 b6bd ece7 0ebd 3926 563c
000001f0: 5688 c23c 5099 94bd 1790 bfbd 0991 f6bc
00000200: 40fc 11bd d6b8 89bd 0fc9 56bd 2fa7 95bd
00000210: cf63 023d 91d5 113d 117a aebd eac8 563c
00000220: 91be 8dbb a71b a2bd 0604 67bc 6354 a2bd
00000230: 9fd4 fc3c acbe fdbd a2ef e4bd 5888 413d
00000240: 83fb 0ebd 2a62 98bd f61f 9dbd 00cb 02bc
00000250: 014f 8dbd 5e3c febb cad7 b9bc 3ded ecbc
00000260: 566e 5fbc d2b3 10be c523 0fbd 5933 b1bc
00000270: b415 06bd 7444 eabd 03e8 1a3d 486c febc
00000280: f9a8 ebbc 30e8 2dbd 7ab1 043d cfb1 323d
00000290: 1797 47bd e874 d4bd 31f1 68bb b665 5cbb
000002a0: c8cd f2ba 80f8 bfbd 23b7 fdbd 013b e5bd
000002b0: b41b 8f3c fc05 e0bd 331f 0d3d 4c66 6bbd
000002c0: f94c b7bd 2093 cebb 208a 5dbd 93bb 89bd
000002d0: 70d4 49bd ae33 26bd 4d96 ebbd e410 adb9
000002e0: a81b c23c 1c09 b6bd 4c47 0ebd 61e2 96ba
000002f0: 6d37 5d3c 074a bebd aa56 e7bd ffdb 09bb
00000300: 9628 77bd 2f5b a4bc b5ee d53c 0f56 1e3d
00000310: e944 113e a25c a4bd d4bc 7bbd ce0f 83bb
00000320: 52a7 10bc 7cd5 0fbc 9e33 a93d 2f21 33be
00000330: 6e2a 91bc d62b 1abd 2989 b9bb f62b 0bbd
00000340: 68b2 933d 0193 fabd 81f4 893c ca47 833d
00000350: b8c7 94bc 8e20 91bb 6e92 4ebc a417 4f3c
00000360: 8efa 3cbc e10e 583c 062d b6bd d3a1 b03c
00000370: 5fc0 21bd 63d8 53bd e7bb 3dbd 53f6 c2bd
00000380: 8070 0c3d 3432 32bd 423c a8bd e936 a13a
00000390: 4a11 c2ba 2fa0 0cbd 74f6 41bc 9a73 a9bd
000003a0: 0881 67bd d39a 0c3d fda9 8e3c 78a6 92bb
000003b0: 82f9 933d 37fe a7bc e8ca f7bd 730c 6ebd
000003c0: b078 97bd 26ed 99bd fd94 833c e0da e3bc
000003d0: d34f bebd 9cae e5bb 9c69 d3bd a129 11be
000003e0: d1e3 93bd 4129 81bc bf32 a7bc 41ef 59bd
000003f0: d4f3 823c d577 b63c 1c05 7dbd 3db3 fdbc

linear2.bias f4 [3]
-0.02892857 -0.044001456 -0.01155965
00000000: 9cfb ecbc df3a 34bd b064 3dbc
